…
    "np.save('train_yy.npy', train_yy)\n",
    "np.save(\"test_xx.npy\", test_xx)\n",
    "np.save(\"test_yy.npy\", test_yy)"
   ]
  },
  {
   "cell_type": "markdown",
   "metadata": {
    "id": "yZfJ7Mew3lLB"
   },
   "source": [
    "## U-Net model development\n",
    "![image.png](data:image/png;base64,…)\n"
   ]
  },
  {
   "cell_type": "code",
   "execution_count": 201,
   "metadata": {
    "id": "Oc9Ct0aq3lLB",
    "scrolled": true
   },
   "outputs": [
    {
     "name": "stdout",
     "output_type": "stream",
     "text": [
      "Using device: mps\n",
      "UNet(\n",
      "  (enc1_1): Conv2d(3, 32, kernel_size=(3, 3), stride=(1, 1), padding=(1, 1))\n",
      "  (enc1_2): Conv2d(32, 32, kernel_size=(3, 3), stride=(1, 1), padding=(1, 1))\n",
      "  (pool1): MaxPool2d(kernel_size=2, stride=2, padding=0, dilation=1, ceil_mode=False)\n",
      "  (drop1): Dropout2d(p=0.1, inplace=False)\n",
      "  (enc2_1): Conv2d(32, 32, kernel_size=(3, 3), stride=(1, 1), padding=(1, 1))\n",
      "  (enc2_2): Conv2d(32, 32, kernel_size=(3, 3), stride=(1, 1), padding=(1, 1))\n",
      "  (pool2): MaxPool2d(kernel_size=2, stride=2, padding=0, dilation=1, ceil_mode=False)\n",
      "  (drop2): Dropout2d(p=0.1, inplace=False)\n",
      "  (enc3_1): Conv2d(32, 64, kernel_size=(3, 3), stride=(1, 1), padding=(1, 1))\n",
      "  (enc3_2): Conv2d(64, 64, kernel_size=(3, 3), stride=(1, 1), padding=(1, 1))\n",
      "  (pool3): MaxPool2d(kernel_size=2, stride=2, padding=0, dilation=1, ceil_mode=False)\n",
      "  (drop3): Dropout2d(p=0.1, inplace=False)\n",
      "  (bottom1): Conv2d(64, 64, kernel_size=(3, 3), stride=(1, 1), padding=(1, 1))\n",
      "  (bottom2): Conv2d(64, 64, kernel_size=(3, 3), stride=(1, 1), padding=(1, 1))\n",
      "  (drop_bottom): Dropout2d(p=0.2, inplace=False)\n",
      "  (upconv3): ConvTranspose2d(64, 64, kernel_size=(3, 3), stride=(1, 1), padding=(1, 1))\n",
      "  (upconv3_2): ConvTranspose2d(64, 64, kernel_size=(3, 3), stride=(2, 2), padding=(1, 1), output_padding=(1, 1))\n",
      "  (dec3_1): Conv2d(128, 64, kernel_size=(3, 3), stride=(1, 1), padding=(1, 1))\n",
      "  (drop4): Dropout2d(p=0.2, inplace=False)\n",
      "  (upconv2): ConvTranspose2d(64, 64, kernel_size=(3, 3), stride=(2, 2), padding=(1, 1), output_padding=(1, 1))\n",
      "  (dec2_1): Conv2d(96, 32, kernel_size=(3, 3), stride=(1, 1), padding=(1, 1))\n",
      "  (drop5): Dropout2d(p=0.2, inplace=False)\n",
      "  (upconv1): ConvTranspose2d(32, 32, kernel_size=(3, 3), stride=(2, 2), padding=(1, 1), output_padding=(1, 1))\n",
      "  (dec1_1): Conv2d(64, 32, kernel_size=(3, 3), stride=(1, 1), padding=(1, 1))\n",
      "  (dec1_2): Conv2d(32, 32, kernel_size=(3, 3), stride=(1, 1), padding=(1, 1))\n",
      "  (drop6): Dropout2d(p=0.2, inplace=False)\n",
      "  (out1): Conv2d(32, 32, kernel_size=(1, 1), stride=(1, 1))\n",
      "  (out2): Conv2d(32, 32, kernel_size=(1, 1), stride=(1, 1))\n",
      "  (out3): Conv2d(32, 1, kernel_size=(1, 1), stride=(1, 1))\n",
      "  (relu): ReLU()\n",
      "  (sigmoid): Sigmoid()\n",
      ")\n"
     ]
    }
   ],
   "source": [
    "# Define U-Net model in PyTorch\n",
    "class UNet(nn.Module):\n",
    "    def __init__(self):\n",
    "        super(UNet, self).__init__()\n",
    "        \n",
    "        # Encoder\n",
    "        self.enc1_1 = nn.Conv2d(3, 32, 3, padding=1)\n",
…
